.lr_find_492bbf4a-aa96-4a56-891d-d252fe3ac7c8.ckpt (torch, 24440 bytes, 7 tensors)

trend.trend_deltas f4 [1, 1, 31]
0	0x3eff49f4	0.4986111
1	0xbc81fc80	-0.015867472
2	0xbe4cf9d0	-0.20017171
3	0x3e3a47a4	0.18191391
4	0xbe0226d9	-0.12710132
5	0x3d2ff72d	0.042960335
6	0x3d65119d	0.055925
7	0x3e837e95	0.25682512
8	0xbdfd227d	-0.12360094
9	0x3d944d2d	0.072412826
10	0x3e243c90	0.16038728
11	0x3e7246a4	0.2365976
12	0xbdf2b779	-0.11851401
13	0xbedb70bf	-0.42859456
14	0xbe127b30	-0.14304805
15	0x3e254cba	0.1614255
16	0x3e70a7be	0.23501489
17	0xbe39c59f	-0.18141793
18	0xbe2df915	-0.16989549
19	0xbc05a3d0	-0.008156732
20	0xbddb765a	-0.10715933
21	0x3d82bdfb	0.06383892
22	0x3c6fdb61	0.014639706
23	0x3d06c794	0.032905176
24	0xbdae20b8	-0.08502334
25	0xbe6d93c9	-0.23200907
26	0xbc9a108e	-0.018806722
27	0x3d091a25	0.0334722
28	0xb92f5974	-0.00016722624
29	0x3b84f386	0.0040573506
30	0xbcdaf95d	-0.026730234

trend.trend_changepoints_t f4 [31]
0	0x00000000	0.0
1	0x3cd3680d	0.025806451
2	0x3d53680d	0.051612902
3	0x3d9e8e0a	0.077419356
4	0x3dd3680d	0.103225805
5	0x3e042108	0.12903225
6	0x3e1e8e0a	0.15483871
7	0x3e38fb0c	0.18064517
8	0x3e53680d	0.20645161
9	0x3e6dd50f	0.23225807
10	0x3e842108	0.2580645
11	0x3e915789	0.28387097
12	0x3e9e8e0a	0.30967742
13	0x3eabc48b	0.33548388
14	0x3eb8fb0c	0.36129034
15	0x3ec6318c	0.38709676
16	0x3ed3680d	0.41290322
17	0x3ee09e8e	0.43870968
18	0x3eedd50f	0.46451613
19	0x3efb0b90	0.4903226
20	0x3f042108	0.516129
21	0x3f0abc49	0.5419355
22	0x3f115789	0.56774193
23	0x3f17f2c9	0.59354836
24	0x3f1e8e0a	0.61935484
25	0x3f25294a	0.6451613
26	0x3f2bc48b	0.67096776
27	0x3f325fcb	0.6967742
28	0x3f38fb0c	0.7225807
29	0x3f3f964c	0.7483871
30	0x3f46318c	0.7741935

seasonality.season_params.monthly f4 [1, 1, 10]
0	0xbe627fbe	-0.22119042
1	0x3d1a75b2	0.0377099
2	0x3f0df582	0.5545274
3	0x3f15f5c7	0.5857815
4	0x3dc5d3d0	0.09659541
5	0x3f1ece0f	0.6203317
6	0x3ee02925	0.4378139
7	0xbeebc450	-0.46048212
8	0xbe95ebc8	-0.2928145
9	0xbe2569b6	-0.16153607

seasonality.season_params.quarterly f4 [1, 1, 10]
0	0x3e25f66d	0.16207285
1	0x3c564912	0.013078945
2	0x3e1fdba2	0.15611127
3	0x3d9f17a3	0.0776818
4	0xbec68cdf	-0.3877935
5	0x3e721efc	0.23644632
6	0x3db02071	0.08599938
7	0x3e56651f	0.20937012
8	0xbcc397ff	-0.023876188
9	0x3e5ea732	0.21743467

event_params.additive f4 [1, 16]
0	0x3edf279a	0.435849
1	0x3e50aca5	0.20378359
2	0x3e19577f	0.14974783
3	0x3e9e45fb	0.30912766
4	0xbf1ef076	-0.62085664
5	0x3e563995	0.20920403
6	0x3e89c0ea	0.26904994
7	0xbe1c76f2	-0.15279749
8	0xbec86394	-0.39138472
9	0x3e9b1df7	0.302963
10	0xbe665727	-0.22494183
11	0x3df0fcd1	0.11766971
12	0x3e55d11a	0.20880547
13	0x3e0ba11b	0.13635676
14	0xbd91266a	-0.07087405
15	0x3d1e40db	0.03863607

ar_net.0.weight f4 [1, 2]
0	0xbf037c56	-0.51361597
1	0x40007b40	2.0075226

covar_net.0.weight f4 [1, 58]
0	0xbdf3ff12	-0.11913885
1	0xbeb01c56	-0.3439662
2	0x3d08b2f8	0.033373803
3	0xbe5d3e19	-0.2160572
4	0x3dbe7d3a	0.09301229
5	0x3e068ae2	0.13138917
6	0xbe845a44	-0.25850117
7	0xbe21d24e	-0.15802881
8	0x3e872214	0.26393187
9	0xbdbd8206	-0.09253316
10	0x3cff6a6f	0.031178681
11	0xbbe9dc79	-0.007136878
12	0x3d614409	0.054996524
13	0x3d710cec	0.058850214
14	0xbd4079b0	-0.04699105
15	0x3e384dfd	0.179985
16	0xbe42be85	-0.1901799
17	0xbdedfed2	-0.11620869
18	0xbd766921	-0.060158852
19	0xbebd9689	-0.37028912
20	0xbdce52da	-0.100743964
21	0x3ca6f184	0.020378835
22	0x3e653dd2	0.22386864
23	0x3e6fb2c2	0.23408034
24	0xbbd125cc	-0.0063826796
25	0xbe1ff484	-0.15620619
26	0x3d012e78	0.031538457
27	0x3d70e76f	0.058814462
28	0x3b6afb46	0.0035855337
29	0xbe5d225f	-0.21595143
30	0x3da62323	0.081121705
31	0xbbefbee5	-0.0073164576
32	0xbd9e90e1	-0.07742477
33	0x3e58c69b	0.21169512
34	0x3d89def4	0.06731978
35	0xbd6a5785	-0.05721237
36	0xbd79f1c4	-0.06102158
37	0xbe2f3a40	-0.17112064
38	0x3dacf523	0.084451936
39	0xbe2f3916	-0.1711162
40	0xbcd5fa15	-0.026120225
41	0x3da4bde9	0.08044035
42	0x3d978398	0.073981464
43	0x3e0874f4	0.13325864
44	0xbc905f30	-0.017623514
45	0x3e96cafe	0.29451746
46	0xbe965999	-0.29365233
47	0x3df2c3b8	0.11853737
48	0x3e05591c	0.13022274
49	0xbe29d567	-0.16585313
50	0x3e291072	0.1651018
51	0x3e002b5e	0.12516543
52	0xbf0354dc	-0.5130136
53	0xbd71d9fd	-0.05904578
54	0x3d164f16	0.036696516
55	0x3becb20e	0.007223374
56	0x3ea24323	0.31691846
57	0xbe4740ea	-0.19458356
